net.pkl (torch_old, 643 bytes, 2 tensors)

fc.weight f4 [5, 3]
0	0xbd0c65a0	-0.034276605
1	0x3dcc70a8	0.09982425
2	0xbeda5af0	-0.42647505
3	0x3eb06a52	0.34456116
4	0x3f0ea86a	0.5572573
5	0x3d341830	0.04396838
6	0x3df18308	0.1179257
7	0xbeaa8332	-0.3330322
8	0xbe6b3290	-0.22968507
9	0x3ed5cc78	0.4175756
10	0x3f049cd0	0.51801777
11	0xbee55e82	-0.44798666
12	0xbece4df2	-0.40293843
13	0x3d435dd0	0.04769689
14	0x3dcdb6c0	0.100446224

fc.bias f4 [5]
0	0xbf082030	-0.53174114
1	0x3e989b2c	0.29805887
2	0x3ecdcce2	0.40195376
3	0xbbc42380	-0.0059856772
4	0xbe9e7b63	-0.30953512
